rnn_model_200000.pth (torch, 109592 bytes, 4 tensors)

i2h.weight f4 [128, 183]
000000 c5 87 f2 bc 87 31 f0 3d 0b 17 48 3d aa 6d 45 3e
       -0.029605756 0.117281966 0.0488501 0.19280115
000010 87 2d 21 3d 52 36 82 3e 6e 8d f6 bb 42 83 25 3d
       0.03935006 0.25432068 -0.007524184 0.04040838
000020 af 4b 98 bd d3 80 99 be 17 5a 34 be f4 66 02 be
       -0.074363105 -0.29981098 -0.17612492 -0.12734586
000030 9c 6b 4b be a5 a7 2b bd c3 52 14 be f2 58 ec bd
       -0.19865268 -0.041907925 -0.14484696 -0.115404025
000040 4c 17 16 3e 77 19 5a be f2 46 94 bd 5a 56 4a bd
       0.14657325 -0.21298777 -0.07240094 -0.049398758
000050 0c 54 25 be 80 24 de 3d 6f 1c 39 3e b0 7c 9e bc
       -0.16145343 0.108468056 0.18077253 -0.019346565
000060 9e 4d f5 bd 39 53 c8 be 42 5c 79 3d d3 f9 be 3d
       -0.11977695 -0.39125994 0.060879 0.09324994
000070 70 3a ce 3b 37 46 8f bc 16 ab 42 3d c3 07 41 3e
       0.0062935874 -0.017489536 0.04752644 0.18850617
000080 fc 37 e2 3d 4c 6f a8 bc d7 72 84 bd 14 f9 77 bc
       0.110458344 -0.020560883 -0.064672165 -0.015135068
000090 fb 77 ee 3b 5d f9 3f bd 58 f8 9b 3d 57 14 e9 3d
       0.0072774864 -0.04686867 0.07615727 0.11380833
0000a0 42 b0 e1 bc cc 2d 61 3d 52 1d bc 3d 74 fd be 3e
       -0.027549867 0.054975316 0.0918528 0.37302744
0000b0 97 cb 07 3d 0e 0e 78 3d 22 35 83 bd fb 30 9d 3d
       0.033153143 0.06056028 -0.06406619 0.07675358
0000c0 7d 24 61 3e 83 ea bd bb 20 88 cf 3d b4 14 07 be
       0.21986575 -0.0057957782 0.10133386 -0.13191491
0000d0 58 dc 95 3c 1c 77 a2 3c a0 55 d0 bb 55 78 bb 3b
       0.018293545 0.019832186 -0.0063578635 0.005721132
0000e0 b5 59 0b bd 2d 27 63 bc 81 f5 8f bc 1e 5a f3 3c
       -0.0340211 -0.013864321 -0.01757312 0.029706057
0000f0 c7 ca 3d 3d 3b c0 a3 3d 02 0d 60 bd 4e 61 87 3d
       0.04633596 0.079956494 -0.054699905 0.06610356
000100 70 db 9c bc 24 b7 ee 3d 54 59 4c bd 2d 16 de 3d
       -0.019147605 0.11656025 -0.049889877 0.108440734
000110 91 d5 7a 3d 7d 73 0f be f4 fc 1c 3c 7b 0e 92 3d
       0.06123883 -0.14008899 0.009581793 0.07131668
000120 1c aa bd bd 81 9e b5 bd 08 7b 33 3d a0 f4 72 bd
       -0.092609614 -0.08868123 0.043818504 -0.059315324
000130 e7 1f b6 bd 9c c3 fd 3b 34 6e a4 3d ce 72 b6 3d
       -0.08892804 0.0077442657 0.08028832 0.08908616
000140 26 c7 91 3c 20 8e b6 bc fc 95 70 bc 82 65 c6 bd
       0.017795157 -0.022284567 -0.014684197 -0.0968733
000150 63 b8 3d 3d 42 cb fa bb 88 8f e7 bd 38 19 bd 3d
       0.046318423 -0.0076536248 -0.11306673 0.09233326
000160 fa e0 8e 3d f8 31 ac 3c 5e c1 a0 bd 4f 12 23 bd
       0.069765046 0.02101992 -0.07849382 -0.039812382
000170 d5 2f f0 3c 74 db e7 3d b3 2f 35 be bd b3 36 3d
       0.029319683 0.11321154 -0.17693977 0.044605006
000180 83 b7 81 bd 8a 5c 3e 3c ca cd 6b 3d bf 3d cc bd
       -0.0633383 0.011618743 0.057569303 -0.09972715
000190 fa 09 41 3d d8 bb d2 bd 49 c3 8b bd 86 eb e7 3d
       0.047128655 -0.102897346 -0.06824357 0.113242194
0001a0 25 5b 10 3d 67 34 b4 3d 39 d8 7e bd 13 95 82 3d
       0.035243172 0.087990575 -0.062217925 0.0637609
0001b0 31 7f 58 bd 7c 93 3a bb e6 6a d5 bd 32 a0 20 bc
       -0.052855674 -0.0028469255 -0.1042078 -0.009803819
0001c0 33 b9 41 bb 30 c1 46 bd 2c 7f ae 3d 38 bf 81 bc
       -0.002955985 -0.04852408 0.0852035 -0.01583825
0001d0 e0 37 4c 3e 72 1e 73 bd 38 43 73 ba 20 e9 87 3d
       0.1994319 -0.059355207 -0.0009279731 0.06636262
0001e0 22 1a b9 3d f0 e3 95 bd fc 46 2b bd 37 94 0d 3d
       0.090381876 -0.07318866 -0.041815743 0.034565177
0001f0 44 45 0d 3d 0c 78 34 3d 9f 54 1e bd ae 3c 84 bd
       0.034489885 0.044059798 -0.03865492 -0.06456886
000200 c7 e4 0a bd 5a 92 a4 bb 17 bc 2c bd a5 55 b5 bd
       -0.033909585 -0.0050223293 -0.042171564 -0.08854226
000210 c0 9d c0 3b 9c c1 7e bc 24 83 b4 3b a7 34 08 bd
       0.0058781803 -0.01554909 0.0055087972 -0.03325334
000220 59 5d 8f bd 3a 74 7c 3d f6 25 57 bd 88 ec 86 bd
       -0.070002265 0.06163428 -0.052526437 -0.065880835
000230 84 81 55 3d 2f 67 68 bb 59 85 a5 bc 2f 5c ac bc
       0.05212547 -0.0035461893 -0.020205187 -0.02104005
000240 7a ea ab 3c 2f 28 bc bd 38 bd a4 bd d8 16 15 3e
       0.02098583 -0.09187352 -0.08043903 0.14559495
000250 43 a6 9b 3d 9d 31 94 bc 96 36 14 bd d6 e7 e6 bd
       0.07600071 -0.018090064 -0.03618487 -0.11274688
000260 cd d0 00 be e1 3f 27 bd 9c ed 84 bc b4 dd ab bd
       -0.12579651 -0.040832404 -0.016226582 -0.08391896
000270 c8 98 84 bd 1f 85 8f bd cf 71 fe 3d af 1f 78 3d
       -0.06474453 -0.07007813 0.12424051 0.06057709
000280 3c 0f 0d be 8f 28 a8 bc d9 ae ef ba d5 a4 54 bd
       -0.13775343 -0.020527152 -0.0018286362 -0.05191501
000290 64 fc 61 3c f2 be 91 bb 75 65 51 3c 91 18 85 3b
       0.013793085 -0.0044478113 0.012780537 0.0040617664
0002a0 36 86 ad 3d db c3 83 bd cb e7 b4 bc ff 3c 7f 3c
       0.08472864 -0.06433841 -0.022083184 0.015578507
0002b0 6b 90 8c bc e8 28 6b 3c 39 6f e9 3c 01 47 73 bb
       -0.017158708 0.0143530145 0.028495418 -0.003712118
0002c0 a6 41 69 3c 1d 55 ac bd 6f 3e b8 3d 15 71 a0 3b
       0.014236843 -0.084146716 0.08996283 0.004896293
0002d0 e8 ae 5f 3b 64 3d ac bd c5 97 ed 3d 5e c1 83 bd
       0.0034131352 -0.08410147 0.11601213 -0.06433366
0002e0 e4 0c c7 3e 1b 21 fd be 2c 47 05 be 97 02 11 be
       0.38877022 -0.4943932 -0.13015431 -0.14161144
0002f0 84 3a 82 bd 9a cb e9 bd 61 56 81 bb b5 d0 ce be
       -0.06358817 -0.11415787 -0.0039470647 -0.40393606
000300 f5 6b 65 3d 88 38 b0 3e ba e1 ae be d4 de c4 bd
       0.05601116 0.3441813 -0.3415659 -0.096128136
000310 c9 c4 de be 7b bd 47 3c 6e fc c7 bd 4a ef f3 bb
       -0.4350951 0.012191172 -0.09764944 -0.007444297
000320 4d a5 09 bc db 36 21 bd 7e b3 9f bc f7 60 61 3d
       -0.008401227 -0.039358955 -0.019494768 0.055024114
000330 82 5f 55 bd 9a 08 b3 3c 85 ce 6b be 1f 8a 08 3f
       -0.052093036 0.021854687 -0.23028 0.53335756
000340 de cd 58 be 31 62 15 3e 26 e0 0a 3e c7 fa b1 3d
       -0.21172282 0.14588238 0.13562068 0.0869041
000350 4b f5 16 be 92 f0 5d be 36 67 2e be 10 6a 60 3d
       -0.1474201 -0.21673802 -0.1703156 0.05478865
000360 91 39 b2 3d 5a e6 1b be d7 81 88 3e 62 94 9b 3b
       0.08702386 -0.15224591 0.2666156 0.004747913
000370 d6 99 74 3e 30 88 80 bd 15 29 11 3e c5 6c 1b 3e
       0.23886809 -0.06275976 0.14175828 0.15178211
000380 7b 89 d7 3e b0 f8 e7 3d 01 1a bc 3d 41 3f 3d 3e
       0.42097077 0.1132673 0.09184647 0.1848116
000390 a0 bb b6 bd d7 61 6a 3d 9a 22 18 3e 26 e4 78 bd
       -0.089225054 0.057222214 0.1485695 -0.060764454
0003a0 99 11 67 bd cb f9 88 3e c3 91 6f ba ba 38 94 3d
       -0.056413267 0.26753077 -0.00091388467 0.07237382
0003b0 24 5c 8a 3d 20 c7 84 3b bd f4 39 3d 05 27 ab 3d
       0.06755856 0.004052058 0.045399416 0.08357052
0003c0 8e 59 fd bc 0c fd 8c bd f3 33 04 3d 44 cf 42 3d
       -0.030926492 -0.06884202 0.032276105 0.047560945
0003d0 a0 2e ea 3d 6f cf b0 bc 36 ae 4e bd d4 ff d4 3d
       0.11434674 -0.021583287 -0.05045911 0.10400358
0003e0 f1 21 87 3c aa cf a5 3c 8a 54 a1 bc da 5d 4a 3d
       0.016495677 0.020240624 -0.019693632 0.04940591
0003f0 65 80 b3 3d 06 ac ba 3c 2f 99 99 3d 30 48 9f 3c
       0.08764724 0.022787105 0.074999206 0.019443601

i2h.bias f4 [128]
000000 cf 87 22 3c 04 62 db 3c 01 4d bd 3d e4 5c eb 3c
       0.009920075 0.026780136 0.09243203 0.028730817
000010 a1 a5 d5 3d f6 6f 75 bd fa e6 72 bd d0 85 90 3c
       0.10431982 -0.059921227 -0.059302308 0.017641932
000020 82 9d fb 39 32 79 67 bd 06 3a 2f bd e3 50 ec bc
       0.00047991803 -0.056512065 -0.042779945 -0.028847164
000030 83 9e b9 3d 8f 9e 41 3d 2b b6 e7 bc 50 60 a2 bc
       0.09063437 0.047270354 -0.028285107 -0.019821316
000040 6d 48 bc 3c 37 4c 95 3d 40 f3 af 3c ad c7 a7 bb
       0.022983754 0.072899275 0.021478295 -0.0051202388
000050 38 f4 3d 3d d2 be 1b 3c 80 f3 ce 3c ba e8 11 be
       0.046375483 0.009505944 0.025262594 -0.14248934
000060 49 d7 46 3d f8 05 ef 3c 8d 4a 17 3e 8f 57 d8 bd
       0.048545156 0.02917765 0.14774533 -0.105635755
000070 29 db 6d bc 3b 17 9d bd 82 55 ae bd 2a 94 68 bb
       -0.014517584 -0.076704465 -0.08512403 -0.0035488703
000080 d2 b0 09 bc be 48 8b 3c ab fd 93 bd a1 3f 51 3d
       -0.008403974 0.01700246 -0.07226118 0.051086072
000090 28 ae 0d bb ad 4f d4 3c d0 91 4f 3d b7 7e 1c bd
       -0.0021618698 0.025916899 0.050676167 -0.038206782
0000a0 10 ea cf 3c a8 07 d2 3d af 53 92 bc c2 48 10 3d
       0.025380164 0.102553666 -0.01786217 0.035225637
0000b0 0e b6 a5 3c 86 9b eb 3d 68 62 1e bb e0 82 c8 3c
       0.020228412 0.11504273 -0.0024167541 0.024476469
0000c0 4f 7b 8a 3c 62 fa d8 bc cd 0f 05 3e c7 84 a6 bc
       0.016904501 -0.02648658 0.12994309 -0.020326985
0000d0 dd e6 9a 3d 79 18 f1 3c fd 81 87 bd 9d 7e e0 3b
       0.07563565 0.029430615 -0.0661659 0.006851031
0000e0 85 ff d5 bc 35 d0 1a bc 91 b3 b6 bc 01 a0 43 3c
       -0.026122818 -0.0094490545 -0.02230242 0.011940003
0000f0 ae 16 8d 3c 55 a2 59 bd 88 3e 9a 3d 30 e4 ae bc
       0.017222729 -0.053133328 0.07531458 -0.021349043
000100 11 bc 09 be 88 e7 ab 3c 70 02 63 3c 0a 7b f4 3c
       -0.13450648 0.020984426 0.013855562 0.029843826
000110 34 07 0b bd 7a b7 08 be d7 c6 e5 3b cd 2b ed bc
       -0.033942416 -0.13351241 0.007012229 -0.02895155
000120 fe 35 95 3d ff 28 c1 3d e9 de e9 bc 3b 35 32 3d
       0.07285689 0.094316475 -0.028548675 0.043507796
000130 25 c3 d1 bc b3 c4 45 bd 4b 82 59 3b 6b 2a 1d bd
       -0.025605747 -0.04828329 0.0033189233 -0.03837053
000140 9d a2 95 3b 91 74 dc 3c e4 80 f3 3b b3 99 1a 3d
       0.004566504 0.026911052 0.0074311364 0.037744235
000150 82 60 07 bd 56 1c 40 bd 65 f6 c1 3c ed ac 64 bd
       -0.03305102 -0.046902023 0.02367706 -0.055828977
000160 b1 0d 67 3d 0e b8 fc 3c 6f ae 08 3d 0d b4 25 bd
       0.05640954 0.030849483 0.033369478 -0.040454913
000170 dd b5 07 3d ab 54 f9 bb 5d 54 23 be 4b 4b 37 bd
       0.033132423 -0.00760897 -0.15950151 -0.04474954
000180 71 14 6c 3d 8e 3a c1 3d ef 67 3b bd 11 af a0 bd
       0.057636682 0.094349965 -0.045753416 -0.07845891
000190 fe bf 74 bc 77 96 df 3c 4f 54 44 bc 3c 26 a7 bc
       -0.014938353 0.027293427 -0.011982991 -0.020403974
0001a0 9c 21 ba 3b 3c 37 37 3d b2 a2 ae 3c 87 36 56 3d
       0.005680276 0.04473041 0.021317814 0.052298095
0001b0 aa 12 1e 3c b5 ca 50 3d a0 6c 02 bd ef ef de bc
       0.009648005 0.050974566 -0.031841874 -0.027214019
0001c0 dd d6 29 be d7 41 4f 3b 78 f8 92 3d c7 20 fa bc
       -0.1658587 0.0031624937 0.07176298 -0.030533208
0001d0 37 9d 03 3c 10 d5 ba bc a6 92 6a bd 84 c3 9d bc
       0.008033088 -0.022806674 -0.05726876 -0.019258268
0001e0 fa 99 17 3c 70 68 5c bd 8a 34 1c 3e 73 e4 e1 bc
       0.0092530195 -0.053810537 0.15254417 -0.027574753
0001f0 ef 14 85 3d ba 27 fd 37 cb 32 bb 3b 1d d3 e4 3c
       0.064981334 3.017845e-05 0.005712842 0.027932698

i2o.weight f4 [18, 183]
000000 d2 66 12 3f 47 5a d8 3f bd c2 53 be 76 75 88 3f
       0.5718814 1.690255 -0.20679756 1.0660846
000010 a9 8b b0 bf e2 3f 97 3f 6d 39 de be 0e 10 4f 3f
       -1.3792621 1.181637 -0.43403187 0.8088387
000020 30 1d 52 3f c4 76 bc bd e9 08 28 bf 15 cc 09 bf
       0.82075787 -0.0920234 -0.65638596 -0.5382703
000030 6a 23 21 3f 6e 42 89 bf 9b 16 91 bf 3a 55 f8 bd
       0.6294466 -1.0723398 -1.1335024 -0.12125631
000040 61 b8 48 bd 14 0c 30 3f 66 9f 75 3e da d4 41 bf
       -0.049003962 0.6876843 0.23986587 -0.7571541
000050 36 74 37 bf 28 8c b5 be be c0 37 be 9a 58 29 be
       -0.716617 -0.35458493 -0.17944619 -0.16537705
000060 f0 8f af 3e a1 3a 1c bc 3f 2a 8e bd 3a bf 19 bd
       0.34289503 -0.009535463 -0.069416516 -0.037535883
000070 8a 3f 0a bd 00 fa 65 3d fb 06 34 bd 68 83 fc 3c
       -0.033752 0.05614662 -0.04395197 0.030824378
000080 28 05 67 bd 7f a6 28 bd dc 89 c4 bc 54 ba f5 bc
       -0.0564014 -0.041174408 -0.023991518 -0.029996075
000090 e0 a5 e8 bb f0 57 75 3c 4c 2e 97 3c 7c 0d 94 bd
       -0.007099852 0.014974579 0.018454693 -0.072291344
0000a0 8b 40 16 bc e2 6a 32 bd f2 94 3e bd d0 d5 1a bc
       -0.009170662 -0.043558963 -0.046528764 -0.009450391
0000b0 20 09 b2 bb 44 78 8c bc 1c af 5d bd c0 54 29 bd
       -0.0054332167 -0.01714719 -0.054122075 -0.04134059
0000c0 c4 f5 5c 3d c8 9c a5 bc 4e b5 50 3d 40 3d f2 3c
       0.053945318 -0.02021636 0.050954156 0.029570222
0000d0 e0 43 82 3d e4 1e 91 3d dd 92 89 bd 3c b7 51 be
       0.063606024 0.0708597 -0.06717465 -0.20480055
0000e0 5c e6 b8 3e a6 5e 01 bf 9f f1 79 be 49 5f c6 bd
       0.3611325 -0.5053505 -0.24408577 -0.09686143
0000f0 ea c1 40 be 87 80 48 bd 7e aa b2 be 86 1e c6 3d
       -0.18823972 -0.0489507 -0.348957 0.09673791
000100 06 8e 1a 3e d3 92 90 3d aa a3 40 3e 01 b7 50 be
       0.1509324 0.070592545 0.18812433 -0.2038231
000110 85 ec 6e 3e 61 4b 05 3f 8b c3 63 3e 73 51 fa 3c
       0.23332413 0.52068144 0.22242562 0.030556416
000120 72 11 0b bd a1 9c 87 be 55 33 3d 3e 94 9e 4b 3d
       -0.033952184 -0.26486686 0.18476613 0.04971178
000130 b7 68 ff 3d 91 a8 06 be 02 e5 ba 3e 72 57 ed 3c
       0.12471145 -0.1315024 0.36502844 0.028972361
000140 ec b2 8d be 7c 2f 18 be 77 7c f6 3e 1e 4d cd 3d
       -0.2767557 -0.14861864 0.48141834 0.100244746
000150 a6 54 f2 3d 08 2d 35 3e 11 1c 4a be f6 5a a4 3d
       0.11832552 0.1769296 -0.19737269 0.08025162
000160 0b 13 4b be 77 4f 43 3d bd 1e 6b bd 06 19 d4 3d
       -0.19831483 0.047683205 -0.05740236 0.10356335
000170 d7 64 34 3d e0 4c 0a bd 41 ca 80 3e b4 cd 4a 3e
       0.04404148 -0.03376472 0.25154307 0.19805032
000180 9a b6 de bd f1 e7 36 bd 52 83 86 3e 21 03 81 3e
       -0.10874672 -0.04465479 0.26272064 0.251977
000190 a2 02 1e be 36 c5 87 bd e7 81 fb bd 0a 71 64 be
       -0.15430692 -0.06629412 -0.12280636 -0.22308746
0001a0 1b 79 04 3f 14 0b b2 be 1a f5 44 3e c3 65 83 3d
       0.5174729 -0.34774077 0.19234124 0.06415894
0001b0 83 07 db be 4b 34 ec bb 97 41 88 bd c1 4c 5e 3e
       -0.42779168 -0.0072083822 -0.06653135 0.21708967
0001c0 be 2d fe bd 59 cb 9d bd 41 fc 80 3d be 47 6c bd
       -0.124110684 -0.07704801 0.062981136 -0.057685606
0001d0 cd de 74 3e 8b c5 63 bb d7 86 7d be af ea f8 bd
       0.23913117 -0.0034755196 -0.24758469 -0.12154137
0001e0 a1 c8 88 3e 6a 84 ce 3d 8d 25 6c bc 03 89 dc be
       0.26715568 0.1008385 -0.01441325 -0.43073282
0001f0 32 e9 f6 be 50 17 00 be 42 f9 19 bd dd 20 e4 3c
       -0.4822479 -0.12508893 -0.037591226 0.027847702
000200 ce ce af be fe 20 c5 be b6 26 4a be f6 84 b8 3d
       -0.34337467 -0.38501734 -0.1974133 0.09009735
000210 10 b4 43 3e dd 94 4b 3d f5 38 53 3d 75 bb dd be
       0.19111657 0.049702514 0.05156799 -0.4330708
000220 0c 39 33 be 84 4f 89 3b c9 2f 10 be 7b 3d 9d bd
       -0.1750223 0.004190387 -0.14080729 -0.07677742
000230 ca 4c 5f be 29 70 41 3e 75 75 17 3f ae f5 27 3e
       -0.21806636 0.18890442 0.591636 0.16402313
000240 d6 c8 80 be eb ac 35 be 0c 53 38 be 55 13 b5 3d
       -0.25153226 -0.17741744 -0.1800043 0.08841578
000250 04 d4 e6 3d 42 17 b2 3d b4 0f cb bd b4 e2 c5 be
       0.112709075 0.08695842 -0.099151045 -0.38649523
000260 76 da 99 bc 0d 02 26 3e 9b df 33 bd 13 4e 82 3e
       -0.018780928 0.1621172 -0.04391442 0.2545019
000270 73 1e 7f be 91 13 88 3d ec 8f ed 3e 5c 6d 66 be
       -0.24913959 0.06644357 0.46398866 -0.22502655
000280 4c 61 cf bc d3 20 7b 3e 42 57 bf 3e 00 b3 03 3e
       -0.02531495 0.2452424 0.3737126 0.12861252
000290 e7 37 b0 3d 2c 67 d1 be 84 30 b5 3d a2 cc 48 3d
       0.086044125 -0.40899026 0.08847144 0.049023278
0002a0 5b a8 b6 be c2 5e b6 3e 06 92 34 be 6b 92 74 3e
       -0.3567532 0.3561917 -0.17633829 0.23883979
0002b0 7f 5d bd 3e 04 4c d7 be 67 38 d6 3c 14 11 02 be
       0.36985394 -0.42050183 0.026149942 -0.12701827
0002c0 ec 34 09 3e da a4 17 3d 03 19 8c 3e d8 c9 97 be
       0.13399094 0.03702245 0.27362832 -0.29646182
0002d0 7f fe 11 3e 69 1a a0 3e 8d 9b 82 be 77 32 b5 be
       0.14257239 0.3127015 -0.255093 -0.35390064
0002e0 d7 f9 18 be a6 fa e7 be 41 ec b2 be 2b b8 f8 3e
       -0.14939056 -0.45308417 -0.34945872 0.4857801
0002f0 00 90 39 be 4b df 05 40 2e e5 10 be f0 1c 57 3f
       -0.18121338 2.0917537 -0.14149925 0.8402853
000300 94 00 5a be fb 1b 14 be d0 cc 31 bf 27 18 aa be
       -0.21289283 -0.14463799 -0.69453144 -0.33221552
000310 9a f8 10 3f 1c 2f 23 3f 64 2a 6a 3c ec 79 30 3d
       0.56629336 0.6374376 0.014292333 0.043085024
000320 d2 9a 96 be 67 1f 59 bf 62 10 84 be 08 fc 49 3f
       -0.29414994 -0.8481354 -0.2579375 0.78900194
000330 c1 23 8a bd c9 09 25 3f 56 f8 43 bd e1 5e 14 bf
       -0.06745101 0.64468056 -0.047844253 -0.57957274
000340 8d 73 de be c8 48 17 bd 7b aa a9 bd b8 f2 40 3c
       -0.43447533 -0.036934644 -0.0828447 0.011776619
000350 c8 00 4b bd 7e da 8b 3d 7c ec 19 bd 36 ec a0 bc
       -0.049561292 0.068287835 -0.037579045 -0.019643884
000360 52 05 37 bd 62 c1 83 bd 9c 6e 28 bd b8 d9 38 bc
       -0.04468281 -0.06433369 -0.04112111 -0.011282377
000370 34 f6 84 bd 80 11 3b 3c 98 f7 23 3c df 8f 40 3d
       -0.06492272 0.011417747 0.010007761 0.047012206
000380 08 72 58 3d 90 fa fc 3c 17 61 14 bd 00 25 74 3a
       0.052843124 0.030881196 -0.036225405 0.0009313375
000390 e4 9c 5c 3d 50 01 68 3d 80 c3 02 3c 10 15 85 3d
       0.05386056 0.056641877 0.007981181 0.06498158
0003a0 c0 3f e8 bc 56 44 dc bc c9 af 8a bd 52 d7 a8 bc
       -0.02835071 -0.026888054 -0.067718096 -0.020610485
0003b0 cd 23 7b bd 96 ec ae bc 34 b6 f8 bd 03 f0 fb bd
       -0.06131344 -0.021353047 -0.121441275 -0.12301638
0003c0 2f 8f ad be b7 ec ce 3e 3d ba 04 3f 03 f8 51 be
       -0.33898303 0.40414974 0.5184668 -0.20504765
0003d0 ec 06 f1 bd 90 ba 0b 3e be 76 6b 3f 37 e8 cf 3e
       -0.11768898 0.13645387 0.9197806 0.40606853
0003e0 b9 d1 77 be 58 7c d1 3e 28 43 45 3e 28 31 6e 3e
       -0.24201097 0.4091518 0.192639 0.23260939
0003f0 9d e4 e6 be 77 c4 4f be b9 45 1b 3c e7 5f 50 be
       -0.45096293 -0.20289789 0.009477072 -0.20349084

i2o.bias f4 [18]
000000 df 9a d5 3c eb e2 19 3e 5e e0 13 3f 96 e7 3e 3e
       0.026074825 0.15027969 0.5776423 0.1864303
000010 12 1a 41 3f 48 d9 0a 3e 9e 02 23 3f 19 ca bf bf
       0.75430405 0.13559449 0.6367587 -1.498355
000020 dd a3 6d bd 52 b5 32 bf 68 0c d7 be 42 e8 1e 3f
       -0.0580176 -0.6980792 -0.42001653 0.6207315
000030 aa 8e 91 be 30 ff 3a bf 42 f6 1d 3e be 4c ea 3a
       -0.28429157 -0.73045635 0.15425971 0.0017875654
000040 44 32 5c be 0a c6 e4 3e
       -0.2150355 0.44682342
